…
2025-08-05 23:29:45,383 - INFO - Incremental training - Task 2 Val IDs: ['13'], size: 4511
2025-08-05 23:29:45,387 - INFO - Incremental training - Test Task 2 size: 1934
2025-08-05 23:29:45,404 - INFO -   (Scaler) Scaler centers: [ 3.3374245   0.101279   27.50083333]
2025-08-05 23:29:45,411 - INFO -   (Scaler) Scaler scales: [0.18253608 1.77971742 1.05683333]
2025-08-05 23:29:46,151 - INFO - Model architecture with adapters:
2025-08-05 23:29:46,155 - INFO - ========== Model Structure ==========
2025-08-05 23:29:46,160 - INFO - 
AdapterCNN(
  (lstm1): LSTM(3, 128, batch_first=True)
  (adapter1): CNNAdapter(
    (down_proj): Linear(in_features=128, out_features=16, bias=True)
    (conv): Conv1d(16, 16, kernel_size=(5,), stride=(1,), padding=(2,))
    (activation): ReLU()
    (dropout): Dropout(p=0.3, inplace=False)
    (up_proj): Linear(in_features=16, out_features=128, bias=True)
    (layer_norm): LayerNorm((128,), eps=1e-05, elementwise_affine=True)
  )
  (dropout_between): Dropout(p=0.3, inplace=False)
  (lstm2): LSTM(128, 128, batch_first=True)
  (adapter2): CNNAdapter(
    (down_proj): Linear(in_features=128, out_features=16, bias=True)
    (conv): Conv1d(16, 16, kernel_size=(5,), stride=(1,), padding=(2,))
    (activation): ReLU()
    (dropout): Dropout(p=0.3, inplace=False)
    (up_proj): Linear(in_features=16, out_features=128, bias=True)
    (layer_norm): LayerNorm((128,), eps=1e-05, elementwise_affine=True)
  )
  (fc): Sequential(
    (0): Linear(in_features=128, out_features=64, bias=True)
    (1): LeakyReLU(negative_slope=0.01)
    (2): Dropout(p=0.3, inplace=False)
    (3): Linear(in_features=64, out_features=1, bias=True)
  )
)
2025-08-05 23:29:46,164 - INFO - =====================================
2025-08-05 23:29:46,167 - INFO - ====== Model Parameters Details ======
2025-08-05 23:29:46,169 - INFO - lstm1.weight_ih_l0                                 | trainable |     1536 params
2025-08-05 23:29:46,171 - INFO - lstm1.weight_hh_l0                                 | trainable |    65536 params
…
